RecStudio-main/saved/BERT4Rec-2024-12-25-15-16-08.ckpt (torch, 875156 bytes, 28 tensors)

item_vector f4 [1153, 64]
-0.009791662 0.08646276 -0.00410269 -0.005568809 -0.00012525702 -0.07402735 0.030994782 -0.086448886
0.011141441 -0.014849409 -0.015138443 -0.0008295496 -0.02550648 -0.018019672 0.041057765 0.021601578
-0.014890027 0.05721688 -0.018987553 0.005532469 -0.048966404 0.018342523 0.049997557 -0.055210114
0.009735279 -0.074608594 0.028541172 -0.028460875 -0.04187814 -0.044643026 -0.004760138 -0.07927194
-0.05498032 0.007596617 0.066508725 -0.057368413 0.07396952 -0.030127209 -0.006902416 -0.024143083
0.014449272 -0.020508025 -0.00074566586 -0.0020867456 -0.009712543 0.03197777 -0.011794354 0.012852738
-0.0016012253 -0.01632828 0.012562219 0.03696565 -0.001860601 0.058451556 0.0061319545 -0.036716394
-0.0747577 0.019068107 -0.04071556 -0.051324815 -0.037832767 -0.01697536 -0.030619947 0.028594017
-0.01690567 0.0033278072 -0.067552224 0.028484356 -0.032850824 -0.06956507 -0.008026047 -0.006308255
-0.0067202984 0.023263844 0.021043474 -0.010053294 0.008905315 -0.061695416 0.0018264138 0.0026961816
-0.011575243 -0.017361859 0.022037255 0.036559794 0.02329225 -0.033950757 -0.020058202 -0.008584609
0.0119014345 -0.024592808 0.021567201 -0.030227061 -0.010754106 -0.022736005 -0.043480955 -0.0006408311
-0.024759935 -0.038571563 -0.09181894 0.029682023 -0.073866725 -0.00927973 0.065210275 0.06510783
-0.04083247 0.010276107 -0.009290746 0.060390946 0.026229842 0.021342877 0.0009885883 -0.051239565
0.07707921 0.01713682 -0.0049209897 0.078871064 -0.0034995887 0.010791185 -0.0052300678 -0.03491066
-0.046717633 0.023480574 -0.089531496 0.038176794 -0.059319574 -0.03925254 -0.024962796 0.020805156
-0.032379355 -0.03690185 0.028089635 0.015166667 0.08628431 -0.0026991023 0.03691441 0.03434598
-0.04956327 0.013111159 -0.006406406 -0.0019340656 -0.019548617 0.023647828 -0.022674138 -0.04215379
0.027242271 -0.004986811 0.041553598 0.018994147 0.014958839 -0.052847326 -0.06476213 -0.07034512
0.006960785 0.0052118064 -0.010876217 -0.074417934 0.012041578 -0.071799815 -0.029226944 -0.04975405
-0.047676276 0.007139727 0.054368917 -0.013426898 -0.0056866207 0.00049025513 0.026007775 -0.033668563
-0.038883273 -0.032243904 -0.013014461 -0.023665566 -0.082116365 0.004015003 -0.043366592 0.04153587
-0.03581294 0.0074853874 -0.013739403 0.05508083 0.009597079 0.03515421 -0.01968836 -0.024046259
-0.05776338 0.019950576 -0.021932563 0.013450028 -0.030906178 -0.022963075 -0.022831341 -0.028624527
0.017291902 -0.01032817 -0.02911882 0.042151358 0.013130332 0.02159556 0.0058797505 -0.018416695
-0.01965651 -0.0147737125 -0.025389722 0.08126899 -0.052655388 -0.011131055 0.03473503 0.05459562
-0.024986984 -0.025264379 0.022102024 -0.010124182 -0.08377709 0.059064884 0.03427476 -0.021909293
0.045481153 0.026455626 -0.036322586 -0.08127014 0.008669685 -0.013994475 0.002341798 -0.0002034516
0.004364856 -0.019992668 0.052917123 -0.0014891356 -0.009329476 0.020725483 0.054299805 0.022994764
-0.003298828 0.058043372 0.026146736 0.068052694 0.0047018286 0.038271282 0.025501136 0.042757522
-0.07107259 0.0063630654 0.048649646 0.008400429 -0.034704722 -0.021896582 0.039760936 -0.0024953822
-0.032904778 0.11526324 0.043752994 0.103402734 -0.012618946 0.0035749937 -0.055512525 0.07179248
00000000: 356d 20bc 6313 b13d dc6f 86bb 8e7a b6bb
00000010: 6d57 03b9 a79b 97bd c5e8 fd3c 1d0c b1bd
00000020: 978a 363c f04a 73bc 3b07 78bc 2276 59ba
00000030: f7f2 d0bc fe9d 93bc 302c 283d cbf5 b03c
00000040: 4df5 73bc 3f5c 6a3d c98b 9bbc b749 b53b
00000050: ff90 48bd 0f43 963c 3dca 4c3d 0024 62bd
00000060: b880 1f3c 64cc 98bd 2dcf e93c c826 e9bc
00000070: 6a88 2bbd 9bdb 36bd effa 9bbb 5459 a2bd
00000080: 0b33 61bd 0bed f83b ba35 883d 24fb 6abd
00000090: 557d 973d 56cd f6bc a92d e2bb b7c7 c5bc
000000a0: a4bc 6c3c 7200 a8bc ca78 43ba c8c1 08bb
000000b0: 5c21 1fbc 1ffb 023d 1b3d 41bc 4a94 523c
000000c0: 35e0 d1ba e3c2 85bc c4d1 4d3c 4b69 173d
000000d0: 69df f3ba e66a 6f3d 90ee c83b ee63 16bd
000000e0: 911a 99bd b834 9c3c 5cc5 26bd f839 52bd
000000f0: 88f6 1abd e90f 8bbc afd6 fabc 003e ea3c
00000100: c27d 8abc 5717 5a3b d258 8abd 0658 e93c
00000110: 968e 06bd 2278 8ebd ae7f 03bc 7ab5 cebb
00000120: f335 dcbb d193 be3c 5d63 ac3c 92b6 24bc
00000130: 99e7 113c 55b4 7cbd 4764 ef3a 6cb2 303b
00000140: 17a6 3dbc 753a 8ebc 7987 b43c b9bf 153d
00000150: 64cf be3c f30f 0bbd 1951 a4bc 76a6 0cbc
00000160: 3cfe 423c db76 c9bc b3ad b03c be9e f7bc
00000170: fd31 30bc dc40 babc 1619 32bd 72fd 27ba
00000180: 59d5 cabc 37fd 1dbd 920b bcbd b727 f33c
00000190: 7047 97bd 020a 18bc f78c 853d 4157 853d
000001a0: f33f 27bd 1e5d 283c 3738 18bc 7f5c 773d
000001b0: f7df d63c 42d7 ae3c 8593 813a 94e0 51bd
000001c0: b4db 9d3d 8462 8c3c 4140 a1bb 2787 a13d
000001d0: 5b59 65bb 83cd 303c fd60 abbb 7bfe 0ebd
000001e0: fd5a 3fbd 555a c03c 4a5c b7bd 455f 1c3d
000001f0: 15f9 72bd 45c7 20bd c77e ccbc 936f aa3c
00000200: 37a0 04bd 6526 17bd 3c1c e63c 9d7d 783c
00000210: d4b5 b03d 6ce3 30bb 9033 173d 5fae 0c3d
00000220: db02 4bbd 30d0 563c d4ec d1bb 7980 fdba
00000230: 6c24 a0bc 17b9 c13c 1dbf b9bc 74a9 2cbd
00000240: 2f2b df3c 6768 a3bb 1b34 2a3d 9d99 9b3c
00000250: eb15 753c 7076 58bd 02a2 84bd 1a11 90bd
00000260: 4c17 e43b cdc7 aa3b 2932 32bc 6e68 98bd
00000270: 0a4a 453c c80b 93bd 586d efbc e7ca 4bbd
00000280: 3348 43bd 5ff4 e93b f1b1 5e3d 7efc 5bbc
00000290: d556 babb 7784 003a 420e d53c 0ce8 09bd
000002a0: 1144 1fbd 2f12 04bd 9b3a 55bc 4ade c1bc
000002b0: a02c a8bd 4990 833b 2ba1 31bd 8421 2a3d
000002c0: 97b0 12bd fb47 f53b 3c1b 61bc 709c 613d
000002d0: 113d 1d3c dcfd 0f3d 7c49 a1bc a9fc c4bc
000002e0: 4b99 6cbd 646f a33c ebab b3bc 825d 5c3c
000002f0: f42e fdbc 0f1d bcbc cb08 bbbc fc7d eabc
00000300: bfa7 8d3c 7c37 29bc 978a eebc e7a6 2c3d
00000310: 9b20 573c 2ce9 b03c ecaa c03b 9cde 96bc
00000320: b006 a1bc 710d 72bc 1bfe cfbc 5b70 a63d
00000330: 2dad 57bd 075f 36bc 5246 0e3d a89f 5f3d
00000340: 81b1 ccbc 3ef7 cebc 4e0f b53c e6df 25bc
00000350: 5393 abbd 05ee 713d b163 0c3d 1e7b b3bc
00000360: 724a 3a3d 78b9 d83c fec6 14bd f670 a6bd
00000370: 4b0b 0e3c 1549 65bc da78 193b 9f55 55b9
00000380: 1107 8f3b aac7 a3bc a0bf 583d 192f c3ba
00000390: a9da 18bc 7dc8 a93c 7969 5e3d 845f bc3c
000003a0: 2631 58bb e3be 6d3d ae31 d63c 365f 8b3d
000003b0: cc11 9a3b 59c2 1c3d c2e7 d03c 8322 2f3d
000003c0: 828e 91bd 4381 d03b da44 473d f4a1 093c
000003d0: 8a26 0ebd 7660 b3bc 5ddc 223d 9189 23bb
000003e0: 29c7 06bd 220f ec3d 5736 333d d0c4 d33d
000003f0: b2bf 4ebc 714a 6a3b 1a61 63bd f007 933d

item_encoder.weight f4 [1154, 64]
0.0 0.0 0.0 0.0 0.0 0.0 0.0 0.0
0.0 0.0 0.0 0.0 0.0 0.0 0.0 0.0
0.0 0.0 0.0 0.0 0.0 0.0 0.0 0.0
0.0 0.0 0.0 0.0 0.0 0.0 0.0 0.0
0.0 0.0 0.0 0.0 0.0 0.0 0.0 0.0
0.0 0.0 0.0 0.0 0.0 0.0 0.0 0.0
0.0 0.0 0.0 0.0 0.0 0.0 0.0 0.0
0.0 0.0 0.0 0.0 0.0 0.0 0.0 0.0
-0.009791662 0.08646276 -0.00410269 -0.005568809 -0.00012525702 -0.07402735 0.030994782 -0.086448886
0.011141441 -0.014849409 -0.015138443 -0.0008295496 -0.02550648 -0.018019672 0.041057765 0.021601578
-0.014890027 0.05721688 -0.018987553 0.005532469 -0.048966404 0.018342523 0.049997557 -0.055210114
0.009735279 -0.074608594 0.028541172 -0.028460875 -0.04187814 -0.044643026 -0.004760138 -0.07927194
-0.05498032 0.007596617 0.066508725 -0.057368413 0.07396952 -0.030127209 -0.006902416 -0.024143083
0.014449272 -0.020508025 -0.00074566586 -0.0020867456 -0.009712543 0.03197777 -0.011794354 0.012852738
-0.0016012253 -0.01632828 0.012562219 0.03696565 -0.001860601 0.058451556 0.0061319545 -0.036716394
-0.0747577 0.019068107 -0.04071556 -0.051324815 -0.037832767 -0.01697536 -0.030619947 0.028594017
-0.01690567 0.0033278072 -0.067552224 0.028484356 -0.032850824 -0.06956507 -0.008026047 -0.006308255
-0.0067202984 0.023263844 0.021043474 -0.010053294 0.008905315 -0.061695416 0.0018264138 0.0026961816
-0.011575243 -0.017361859 0.022037255 0.036559794 0.02329225 -0.033950757 -0.020058202 -0.008584609
0.0119014345 -0.024592808 0.021567201 -0.030227061 -0.010754106 -0.022736005 -0.043480955 -0.0006408311
-0.024759935 -0.038571563 -0.09181894 0.029682023 -0.073866725 -0.00927973 0.065210275 0.06510783
-0.04083247 0.010276107 -0.009290746 0.060390946 0.026229842 0.021342877 0.0009885883 -0.051239565
0.07707921 0.01713682 -0.0049209897 0.078871064 -0.0034995887 0.010791185 -0.0052300678 -0.03491066
-0.046717633 0.023480574 -0.089531496 0.038176794 -0.059319574 -0.03925254 -0.024962796 0.020805156
-0.032379355 -0.03690185 0.028089635 0.015166667 0.08628431 -0.0026991023 0.03691441 0.03434598
-0.04956327 0.013111159 -0.006406406 -0.0019340656 -0.019548617 0.023647828 -0.022674138 -0.04215379
0.027242271 -0.004986811 0.041553598 0.018994147 0.014958839 -0.052847326 -0.06476213 -0.07034512
0.006960785 0.0052118064 -0.010876217 -0.074417934 0.012041578 -0.071799815 -0.029226944 -0.04975405
-0.047676276 0.007139727 0.054368917 -0.013426898 -0.0056866207 0.00049025513 0.026007775 -0.033668563
-0.038883273 -0.032243904 -0.013014461 -0.023665566 -0.082116365 0.004015003 -0.043366592 0.04153587
-0.03581294 0.0074853874 -0.013739403 0.05508083 0.009597079 0.03515421 -0.01968836 -0.024046259
-0.05776338 0.019950576 -0.021932563 0.013450028 -0.030906178 -0.022963075 -0.022831341 -0.028624527
00000000: 0000 0000 0000 0000 0000 0000 0000 0000
00000010: 0000 0000 0000 0000 0000 0000 0000 0000
00000020: 0000 0000 0000 0000 0000 0000 0000 0000
00000030: 0000 0000 0000 0000 0000 0000 0000 0000
00000040: 0000 0000 0000 0000 0000 0000 0000 0000
00000050: 0000 0000 0000 0000 0000 0000 0000 0000
00000060: 0000 0000 0000 0000 0000 0000 0000 0000
00000070: 0000 0000 0000 0000 0000 0000 0000 0000
00000080: 0000 0000 0000 0000 0000 0000 0000 0000
00000090: 0000 0000 0000 0000 0000 0000 0000 0000
000000a0: 0000 0000 0000 0000 0000 0000 0000 0000
000000b0: 0000 0000 0000 0000 0000 0000 0000 0000
000000c0: 0000 0000 0000 0000 0000 0000 0000 0000
000000d0: 0000 0000 0000 0000 0000 0000 0000 0000
000000e0: 0000 0000 0000 0000 0000 0000 0000 0000
000000f0: 0000 0000 0000 0000 0000 0000 0000 0000
00000100: 356d 20bc 6313 b13d dc6f 86bb 8e7a b6bb
00000110: 6d57 03b9 a79b 97bd c5e8 fd3c 1d0c b1bd
00000120: 978a 363c f04a 73bc 3b07 78bc 2276 59ba
00000130: f7f2 d0bc fe9d 93bc 302c 283d cbf5 b03c
00000140: 4df5 73bc 3f5c 6a3d c98b 9bbc b749 b53b
00000150: ff90 48bd 0f43 963c 3dca 4c3d 0024 62bd
00000160: b880 1f3c 64cc 98bd 2dcf e93c c826 e9bc
00000170: 6a88 2bbd 9bdb 36bd effa 9bbb 5459 a2bd
00000180: 0b33 61bd 0bed f83b ba35 883d 24fb 6abd
00000190: 557d 973d 56cd f6bc a92d e2bb b7c7 c5bc
000001a0: a4bc 6c3c 7200 a8bc ca78 43ba c8c1 08bb
000001b0: 5c21 1fbc 1ffb 023d 1b3d 41bc 4a94 523c
000001c0: 35e0 d1ba e3c2 85bc c4d1 4d3c 4b69 173d
000001d0: 69df f3ba e66a 6f3d 90ee c83b ee63 16bd
000001e0: 911a 99bd b834 9c3c 5cc5 26bd f839 52bd
000001f0: 88f6 1abd e90f 8bbc afd6 fabc 003e ea3c
00000200: c27d 8abc 5717 5a3b d258 8abd 0658 e93c
00000210: 968e 06bd 2278 8ebd ae7f 03bc 7ab5 cebb
00000220: f335 dcbb d193 be3c 5d63 ac3c 92b6 24bc
00000230: 99e7 113c 55b4 7cbd 4764 ef3a 6cb2 303b
00000240: 17a6 3dbc 753a 8ebc 7987 b43c b9bf 153d
00000250: 64cf be3c f30f 0bbd 1951 a4bc 76a6 0cbc
00000260: 3cfe 423c db76 c9bc b3ad b03c be9e f7bc
00000270: fd31 30bc dc40 babc 1619 32bd 72fd 27ba
00000280: 59d5 cabc 37fd 1dbd 920b bcbd b727 f33c
00000290: 7047 97bd 020a 18bc f78c 853d 4157 853d
000002a0: f33f 27bd 1e5d 283c 3738 18bc 7f5c 773d
000002b0: f7df d63c 42d7 ae3c 8593 813a 94e0 51bd
000002c0: b4db 9d3d 8462 8c3c 4140 a1bb 2787 a13d
000002d0: 5b59 65bb 83cd 303c fd60 abbb 7bfe 0ebd
000002e0: fd5a 3fbd 555a c03c 4a5c b7bd 455f 1c3d
000002f0: 15f9 72bd 45c7 20bd c77e ccbc 936f aa3c
00000300: 37a0 04bd 6526 17bd 3c1c e63c 9d7d 783c
00000310: d4b5 b03d 6ce3 30bb 9033 173d 5fae 0c3d
00000320: db02 4bbd 30d0 563c d4ec d1bb 7980 fdba
00000330: 6c24 a0bc 17b9 c13c 1dbf b9bc 74a9 2cbd
00000340: 2f2b df3c 6768 a3bb 1b34 2a3d 9d99 9b3c
00000350: eb15 753c 7076 58bd 02a2 84bd 1a11 90bd
00000360: 4c17 e43b cdc7 aa3b 2932 32bc 6e68 98bd
00000370: 0a4a 453c c80b 93bd 586d efbc e7ca 4bbd
00000380: 3348 43bd 5ff4 e93b f1b1 5e3d 7efc 5bbc
00000390: d556 babb 7784 003a 420e d53c 0ce8 09bd
000003a0: 1144 1fbd 2f12 04bd 9b3a 55bc 4ade c1bc
000003b0: a02c a8bd 4990 833b 2ba1 31bd 8421 2a3d
000003c0: 97b0 12bd fb47 f53b 3c1b 61bc 709c 613d
000003d0: 113d 1d3c dcfd 0f3d 7c49 a1bc a9fc c4bc
000003e0: 4b99 6cbd 646f a33c ebab b3bc 825d 5c3c
000003f0: f42e fdbc 0f1d bcbc cb08 bbbc fc7d eabc

query_encoder.item_encoder.weight f4 [1154, 64]
0.0 0.0 0.0 0.0 0.0 0.0 0.0 0.0
0.0 0.0 0.0 0.0 0.0 0.0 0.0 0.0
0.0 0.0 0.0 0.0 0.0 0.0 0.0 0.0
0.0 0.0 0.0 0.0 0.0 0.0 0.0 0.0
0.0 0.0 0.0 0.0 0.0 0.0 0.0 0.0
0.0 0.0 0.0 0.0 0.0 0.0 0.0 0.0
0.0 0.0 0.0 0.0 0.0 0.0 0.0 0.0
0.0 0.0 0.0 0.0 0.0 0.0 0.0 0.0
-0.009791662 0.08646276 -0.00410269 -0.005568809 -0.00012525702 -0.07402735 0.030994782 -0.086448886
0.011141441 -0.014849409 -0.015138443 -0.0008295496 -0.02550648 -0.018019672 0.041057765 0.021601578
-0.014890027 0.05721688 -0.018987553 0.005532469 -0.048966404 0.018342523 0.049997557 -0.055210114
0.009735279 -0.074608594 0.028541172 -0.028460875 -0.04187814 -0.044643026 -0.004760138 -0.07927194
-0.05498032 0.007596617 0.066508725 -0.057368413 0.07396952 -0.030127209 -0.006902416 -0.024143083
0.014449272 -0.020508025 -0.00074566586 -0.0020867456 -0.009712543 0.03197777 -0.011794354 0.012852738
-0.0016012253 -0.01632828 0.012562219 0.03696565 -0.001860601 0.058451556 0.0061319545 -0.036716394
-0.0747577 0.019068107 -0.04071556 -0.051324815 -0.037832767 -0.01697536 -0.030619947 0.028594017
-0.01690567 0.0033278072 -0.067552224 0.028484356 -0.032850824 -0.06956507 -0.008026047 -0.006308255
-0.0067202984 0.023263844 0.021043474 -0.010053294 0.008905315 -0.061695416 0.0018264138 0.0026961816
-0.011575243 -0.017361859 0.022037255 0.036559794 0.02329225 -0.033950757 -0.020058202 -0.008584609
0.0119014345 -0.024592808 0.021567201 -0.030227061 -0.010754106 -0.022736005 -0.043480955 -0.0006408311
-0.024759935 -0.038571563 -0.09181894 0.029682023 -0.073866725 -0.00927973 0.065210275 0.06510783
-0.04083247 0.010276107 -0.009290746 0.060390946 0.026229842 0.021342877 0.0009885883 -0.051239565
0.07707921 0.01713682 -0.0049209897 0.078871064 -0.0034995887 0.010791185 -0.0052300678 -0.03491066
-0.046717633 0.023480574 -0.089531496 0.038176794 -0.059319574 -0.03925254 -0.024962796 0.020805156
-0.032379355 -0.03690185 0.028089635 0.015166667 0.08628431 -0.0026991023 0.03691441 0.03434598
-0.04956327 0.013111159 -0.006406406 -0.0019340656 -0.019548617 0.023647828 -0.022674138 -0.04215379
0.027242271 -0.004986811 0.041553598 0.018994147 0.014958839 -0.052847326 -0.06476213 -0.07034512
0.006960785 0.0052118064 -0.010876217 -0.074417934 0.012041578 -0.071799815 -0.029226944 -0.04975405
-0.047676276 0.007139727 0.054368917 -0.013426898 -0.0056866207 0.00049025513 0.026007775 -0.033668563
-0.038883273 -0.032243904 -0.013014461 -0.023665566 -0.082116365 0.004015003 -0.043366592 0.04153587
-0.03581294 0.0074853874 -0.013739403 0.05508083 0.009597079 0.03515421 -0.01968836 -0.024046259
-0.05776338 0.019950576 -0.021932563 0.013450028 -0.030906178 -0.022963075 -0.022831341 -0.028624527
00000000: 0000 0000 0000 0000 0000 0000 0000 0000
00000010: 0000 0000 0000 0000 0000 0000 0000 0000
00000020: 0000 0000 0000 0000 0000 0000 0000 0000
00000030: 0000 0000 0000 0000 0000 0000 0000 0000
00000040: 0000 0000 0000 0000 0000 0000 0000 0000
00000050: 0000 0000 0000 0000 0000 0000 0000 0000
00000060: 0000 0000 0000 0000 0000 0000 0000 0000
00000070: 0000 0000 0000 0000 0000 0000 0000 0000
00000080: 0000 0000 0000 0000 0000 0000 0000 0000
00000090: 0000 0000 0000 0000 0000 0000 0000 0000
000000a0: 0000 0000 0000 0000 0000 0000 0000 0000
000000b0: 0000 0000 0000 0000 0000 0000 0000 0000
000000c0: 0000 0000 0000 0000 0000 0000 0000 0000
000000d0: 0000 0000 0000 0000 0000 0000 0000 0000
000000e0: 0000 0000 0000 0000 0000 0000 0000 0000
000000f0: 0000 0000 0000 0000 0000 0000 0000 0000
00000100: 356d 20bc 6313 b13d dc6f 86bb 8e7a b6bb
00000110: 6d57 03b9 a79b 97bd c5e8 fd3c 1d0c b1bd
00000120: 978a 363c f04a 73bc 3b07 78bc 2276 59ba
00000130: f7f2 d0bc fe9d 93bc 302c 283d cbf5 b03c
00000140: 4df5 73bc 3f5c 6a3d c98b 9bbc b749 b53b
00000150: ff90 48bd 0f43 963c 3dca 4c3d 0024 62bd
00000160: b880 1f3c 64cc 98bd 2dcf e93c c826 e9bc
00000170: 6a88 2bbd 9bdb 36bd effa 9bbb 5459 a2bd
00000180: 0b33 61bd 0bed f83b ba35 883d 24fb 6abd
00000190: 557d 973d 56cd f6bc a92d e2bb b7c7 c5bc
000001a0: a4bc 6c3c 7200 a8bc ca78 43ba c8c1 08bb
000001b0: 5c21 1fbc 1ffb 023d 1b3d 41bc 4a94 523c
000001c0: 35e0 d1ba e3c2 85bc c4d1 4d3c 4b69 173d
000001d0: 69df f3ba e66a 6f3d 90ee c83b ee63 16bd
000001e0: 911a 99bd b834 9c3c 5cc5 26bd f839 52bd
000001f0: 88f6 1abd e90f 8bbc afd6 fabc 003e ea3c
00000200: c27d 8abc 5717 5a3b d258 8abd 0658 e93c
00000210: 968e 06bd 2278 8ebd ae7f 03bc 7ab5 cebb
00000220: f335 dcbb d193 be3c 5d63 ac3c 92b6 24bc
00000230: 99e7 113c 55b4 7cbd 4764 ef3a 6cb2 303b
00000240: 17a6 3dbc 753a 8ebc 7987 b43c b9bf 153d
00000250: 64cf be3c f30f 0bbd 1951 a4bc 76a6 0cbc
00000260: 3cfe 423c db76 c9bc b3ad b03c be9e f7bc
00000270: fd31 30bc dc40 babc 1619 32bd 72fd 27ba
00000280: 59d5 cabc 37fd 1dbd 920b bcbd b727 f33c
00000290: 7047 97bd 020a 18bc f78c 853d 4157 853d
000002a0: f33f 27bd 1e5d 283c 3738 18bc 7f5c 773d
000002b0: f7df d63c 42d7 ae3c 8593 813a 94e0 51bd
000002c0: b4db 9d3d 8462 8c3c 4140 a1bb 2787 a13d
000002d0: 5b59 65bb 83cd 303c fd60 abbb 7bfe 0ebd
000002e0: fd5a 3fbd 555a c03c 4a5c b7bd 455f 1c3d
000002f0: 15f9 72bd 45c7 20bd c77e ccbc 936f aa3c
00000300: 37a0 04bd 6526 17bd 3c1c e63c 9d7d 783c
00000310: d4b5 b03d 6ce3 30bb 9033 173d 5fae 0c3d
00000320: db02 4bbd 30d0 563c d4ec d1bb 7980 fdba
00000330: 6c24 a0bc 17b9 c13c 1dbf b9bc 74a9 2cbd
00000340: 2f2b df3c 6768 a3bb 1b34 2a3d 9d99 9b3c
00000350: eb15 753c 7076 58bd 02a2 84bd 1a11 90bd
00000360: 4c17 e43b cdc7 aa3b 2932 32bc 6e68 98bd
00000370: 0a4a 453c c80b 93bd 586d efbc e7ca 4bbd
00000380: 3348 43bd 5ff4 e93b f1b1 5e3d 7efc 5bbc
00000390: d556 babb 7784 003a 420e d53c 0ce8 09bd
000003a0: 1144 1fbd 2f12 04bd 9b3a 55bc 4ade c1bc
000003b0: a02c a8bd 4990 833b 2ba1 31bd 8421 2a3d
000003c0: 97b0 12bd fb47 f53b 3c1b 61bc 709c 613d
000003d0: 113d 1d3c dcfd 0f3d 7c49 a1bc a9fc c4bc
000003e0: 4b99 6cbd 646f a33c ebab b3bc 825d 5c3c
000003f0: f42e fdbc 0f1d bcbc cb08 bbbc fc7d eabc

query_encoder.position_emb.weight f4 [20, 64]
0.0009999983 -0.0009999963 0.0009999911 0.0009999956 0.0009999969 0.0009999936 0.0009999991 0.0009999974
-0.0009999895 0.000999998 -0.0009999982 -0.0009999941 -0.000999998 -0.0009999973 -0.0009999973 0.0009999982
0.000999998 0.0009999961 0.000999984 -0.0009999912 0.0009999949 0.0009999973 -0.0009999985 -0.0009999968
-0.0009999832 0.000999999 -0.0009999913 -0.000999998 -0.0009999987 -0.0009999975 0.000999991 -0.0009999967
0.0009999973 0.0009999968 0.0009998726 -0.0009999982 -0.0009999895 0.0009999969 0.0009999903 0.0009999934
-0.0009999987 -0.0009999969 -0.0009999984 0.0009999984 -0.0009999967 -0.0009999983 -0.0009998812 -0.0009999922
-0.0009999956 0.0009999942 -0.000999912 0.0009999983 -0.0009999989 0.0009999985 -0.0009999926 -0.0009999969
0.0009999935 -0.0009999513 -0.0009999789 -0.0009999942 -0.0009998984 -0.000999998 -0.0009999977 0.000999973
0.0009999984 -0.0009999969 0.0009999987 0.0009999971 0.0009999981 -0.0009999133 0.0009999949 0.0009999963
-0.000999999 0.0009999955 0.0009999938 -0.00099999 -0.0009999983 -0.0009999952 -0.0009999973 0.0009997907
0.0009999989 -0.0009999977 -0.0009999938 0.0009999991 -0.0009999911 0.0009996421 -0.0009999903 -0.0009999969
-0.0009999973 0.0009999988 -0.0009999984 -0.000999999 -0.0009999989 -0.0009999969 0.0009999985 -0.0009999991
0.0009999942 0.0009999948 0.0009999913 0.0009999985 -0.0009999985 0.0009999985 -0.0009999971 0.0009999822
0.0009999985 0.0009999953 -0.0009999932 0.0009999987 0.0009999955 -0.0009999978 -0.0009999969 0.0009999294
0.0009999971 -0.0009999988 -0.0009999957 0.0009999982 -0.000999991 0.0009999969 -0.000999995 -0.0009999989
0.0009999983 0.0009999978 -0.0009999973 0.0009999721 -0.0009999987 0.0009999888 0.0009999946 0.0009999947
0.000999999 -0.0009999983 -0.0009999985 0.0009999982 -0.00099999 -0.0009999987 -0.0009999896 0.0009999985
0.0009999976 -0.0009999872 0.0009999991 0.0009999827 -0.0009999987 -0.0009999925 0.0009999956 -0.0009999989
0.0009999984 0.0009999729 0.0009999983 0.0009999983 -0.0009999934 -0.0009999968 -0.000999999 -0.0009999981
-0.0009999983 0.000999999 0.0009999967 -0.0009999982 -0.0009999988 -0.0009999961 0.0009999909 0.0009999949
0.0009999975 0.0009999989 0.0009999981 -0.0009999988 -0.0009999642 0.0009999924 -0.0009999962 0.0009999974
0.0009999967 0.0009999931 -0.0009999961 -0.0009999826 -0.0009999985 -0.000999999 -0.0009999991 0.0009999975
-0.0009999969 -0.0009999905 0.0009999968 -0.0009999971 -0.0009999821 0.0009999969 0.0009999984 -0.0009999984
0.0009999989 0.000999991 -0.0009999967 -0.0009999988 -0.0009999988 0.0009999961 0.0009999987 -0.0009999914
0.0009999932 -0.0009999983 -0.0009999977 0.0009999953 0.000999998 -0.0009999899 0.0009999985 -0.0009971713
-0.0009999982 0.0009999842 0.000999998 -0.0009999919 -0.0009999961 0.0009999934 -0.0009999984 -0.0009999982
0.0009999953 -0.0009999988 -0.0009999936 0.0009999985 0.0009999839 0.0009999983 0.000999993 -0.0009999969
-0.000999999 0.0009999982 -0.0009999946 0.0009999942 -0.0009999941 0.0009999942 0.0009999975 -0.0009999931
0.0009999966 0.0009999973 0.0009999966 -0.000999996 -0.0009999863 0.0009999967 0.0009999966 0.0009999978
0.0009999964 -0.0009999917 0.0009999872 -0.0009999976 -0.0009999897 0.0009999917 -0.0009999975 -0.0009999904
-0.000999999 0.00099999 -0.0009999931 -0.000999998 -0.0009999977 0.0009999982 -0.0009999953 -0.0009999971
0.0009999985 0.000999997 0.0009999984 -0.000999995 -0.0009999839 -0.0009999976 0.0009999884 -0.0009999947
00000000: 6012 833a 4f12 83ba 2212 833a 4912 833a
00000010: 5412 833a 3812 833a 6712 833a 5812 833a
00000020: 1412 83ba 5d12 833a 5f12 83ba 3c12 83ba
00000030: 5d12 83ba 5712 83ba 5712 83ba 5f12 833a
00000040: 5d12 833a 4d12 833a e511 833a 2312 83ba
00000050: 4312 833a 5712 833a 6212 83ba 5312 83ba
00000060: de11 83ba 6612 833a 2412 83ba 5d12 83ba
00000070: 6312 83ba 5912 83ba 2112 833a 5212 83ba
00000080: 5712 833a 5312 833a 280e 833a 5f12 83ba
00000090: 1412 83ba 5412 833a 1b12 833a 3612 833a
000000a0: 6312 83ba 5412 83ba 6112 83ba 6112 833a
000000b0: 5212 83ba 6012 83ba 720e 83ba 2c12 83ba
000000c0: 4912 83ba 3d12 833a 7b0f 83ba 6012 833a
000000d0: 6512 83ba 6212 833a 2f12 83ba 5412 83ba
000000e0: 3712 833a cc10 83ba b911 83ba 3d12 83ba
000000f0: 060f 83ba 5d12 83ba 5b12 83ba 8711 833a
00000100: 6112 833a 5412 83ba 6312 833a 5612 833a
00000110: 5e12 833a 860f 83ba 4312 833a 4f12 833a
00000120: 6612 83ba 4812 833a 3912 833a 1912 83ba
00000130: 6012 83ba 4512 83ba 5712 83ba 690b 833a
00000140: 6512 833a 5b12 83ba 3912 83ba 6712 833a
00000150: 2212 83ba 6c06 833a 1b12 83ba 5412 83ba
00000160: 5712 83ba 6412 833a 6112 83ba 6612 83ba
00000170: 6512 83ba 5412 83ba 6212 833a 6712 83ba
00000180: 3d12 833a 4212 833a 2412 833a 6212 833a
00000190: 6212 83ba 6212 833a 5612 83ba d611 833a
000001a0: 6212 833a 4612 833a 3412 83ba 6312 833a
000001b0: 4812 833a 5c12 83ba 5412 83ba 1010 833a
000001c0: 5612 833a 6412 83ba 4a12 83ba 5f12 833a
000001d0: 2112 83ba 5412 833a 4412 83ba 6512 83ba
000001e0: 6012 833a 5c12 833a 5712 83ba 7f11 833a
000001f0: 6312 83ba 0e12 833a 4012 833a 4112 833a
00000200: 6612 833a 6012 83ba 6212 83ba 5f12 833a
00000210: 1912 83ba 6312 83ba 1512 83ba 6212 833a
00000220: 5a12 833a 0112 83ba 6712 833a da11 833a
00000230: 6312 83ba 2e12 83ba 4912 833a 6512 83ba
00000240: 6112 833a 8611 833a 6012 833a 6012 833a
00000250: 3612 83ba 5312 83ba 6612 83ba 5e12 83ba
00000260: 6012 83ba 6612 833a 5212 833a 5f12 83ba
00000270: 6412 83ba 4d12 83ba 2012 833a 4312 833a
00000280: 5912 833a 6512 833a 5e12 833a 6412 83ba
00000290: 3b11 83ba 2d12 833a 4e12 83ba 5812 833a
000002a0: 5212 833a 3312 833a 4d12 83ba d911 83ba
000002b0: 6212 83ba 6612 83ba 6712 83ba 5912 833a
000002c0: 5412 83ba 1d12 83ba 5312 833a 5612 83ba
000002d0: d511 83ba 5412 833a 6112 833a 6112 83ba
000002e0: 6512 833a 2112 833a 5212 83ba 6412 83ba
000002f0: 6412 83ba 4d12 833a 6312 833a 2512 83ba
00000300: 3412 833a 6012 83ba 5b12 83ba 4612 833a
00000310: 5d12 833a 1812 83ba 6212 833a 84b3 82ba
00000320: 5f12 83ba e711 833a 5d12 833a 2912 83ba
00000330: 4d12 83ba 3612 833a 6112 83ba 5f12 83ba
00000340: 4612 833a 6412 83ba 3812 83ba 6212 833a
00000350: e411 833a 6012 833a 3212 833a 5412 83ba
00000360: 6612 83ba 5f12 833a 4012 83ba 3d12 833a
00000370: 3c12 83ba 3d12 833a 5912 833a 3312 83ba
00000380: 5112 833a 5712 833a 5112 833a 4c12 83ba
00000390: f911 83ba 5212 833a 5112 833a 5c12 833a
000003a0: 5012 833a 2712 83ba 0112 833a 5a12 83ba
000003b0: 1612 83ba 2712 833a 5912 83ba 1c12 83ba
000003c0: 6612 83ba 1912 833a 3312 83ba 5d12 83ba
000003d0: 5b12 83ba 5f12 833a 4612 83ba 5612 83ba
000003e0: 6212 833a 5512 833a 6112 833a 4412 83ba
000003f0: e411 83ba 5a12 83ba 0b12 833a 4112 83ba

query_encoder.transformer_layer.layers.0.self_attn.in_proj_weight f4 [192, 64]
0.10129692 -0.10096721 -0.12889239 -0.11530262 -0.014666737 -0.06352561 0.10674282 0.07949008
-0.093641914 0.06312233 -0.021006739 -0.029984314 0.02335952 0.124669254 0.11030204 0.1361242
0.12135324 -0.14102015 0.07699343 -0.036365904 0.08377039 0.1321672 -0.036910746 -0.1386031
0.017480908 -0.004395939 -0.040394697 -0.09460893 -0.10475488 -0.14355251 -0.13525964 0.09292154
-0.14965065 -0.059992526 0.1143698 -0.13539106 0.09389022 0.028123608 -0.0245264 0.08141818
0.1241484 -0.12946689 -0.029769288 0.08793081 -0.018010758 -0.14592533 0.034615766 -0.13451518
-0.1452943 0.007878272 0.030581005 0.1222396 -0.12815256 0.020980828 -0.06699551 -0.09025415
-0.043300346 -0.10498192 -0.006912963 0.10108339 0.013780542 0.06314551 -0.0888524 -0.06733257
0.11524982 -0.04153284 -0.040344555 0.06501725 0.045902066 0.08197613 0.09783256 0.03135785
-0.077285185 -0.0011200171 0.07507805 -0.04878017 -0.037031874 -0.081408724 -0.029472662 -0.016653493
-0.1118522 0.038557135 -0.13915524 0.12422489 0.0051831054 -0.007309095 0.14210597 -0.077563934
0.062138688 -0.021455875 0.016209606 -0.01828952 -0.022468785 -0.01865338 0.11137812 0.014953881
0.020347023 -0.006201226 -0.09937855 0.027511904 -0.01741678 0.010196073 -0.065584406 -0.0716212
-0.03477256 -0.0012207277 0.09175843 0.018990276 -0.018401943 0.05257959 -0.058522083 0.076295
0.02128857 0.03598085 -0.085109845 -0.12770106 0.14152837 -0.12714571 0.0621278 0.07922446
0.011008494 0.086486965 0.124806605 0.07950146 -0.024318824 -0.027400285 -0.050931856 -0.10621555
0.13190506 -0.04191441 -0.09894239 -0.019249681 0.008673725 0.13002622 0.07956693 0.13518044
-0.1100352 0.023396108 -0.08609649 0.10840389 -0.05373244 -0.012299638 -0.11540874 0.04823532
-0.07231006 0.054062944 -0.06444359 -0.12616187 -0.04727657 -0.10280431 -0.010968219 0.07823423
-0.14883007 0.026735438 0.09634589 0.112102814 -0.12923963 0.051899604 0.007281425 -0.122195065
-0.08936902 0.058826696 -0.10779361 -0.048918825 -0.0036597103 0.14807601 0.041270673 -0.11530572
0.068254896 -0.069781445 -0.041198365 -0.1180099 -0.034683593 0.033788316 0.12289799 -0.028911497
-0.13444912 -0.13296205 0.07388226 -0.06634921 0.046910692 0.09930654 -0.08347321 0.08312613
0.11265146 -0.079803444 -0.075981535 0.06852131 0.08795909 0.15104184 -0.057450928 -0.04316316
0.050157238 0.122692056 -0.06766567 -0.027634853 0.07795614 -0.15121962 0.070348024 0.0073455856
0.10366791 0.14762658 -0.13237517 -0.043484736 -0.07827507 0.059054073 -0.106624186 -0.027526796
0.07181828 -0.08577451 -0.073807254 0.11398927 0.100678094 0.14323346 -0.15078245 -0.0028220078
-0.08651106 -0.077520885 0.049003087 0.03809649 0.045887712 -0.041621346 0.005362808 0.11598588
-0.05896049 0.058498774 0.089564234 -0.026639774 0.033650875 -0.025177836 -0.12224177 0.06791203
-0.13384743 -0.00993798 -0.14741847 -0.10453988 -0.05478362 0.121085234 -0.03545181 -0.036331244
0.02026367 0.0045675845 -0.1160855 -0.124072656 -0.051036667 0.0026776632 0.07477187 0.021650547
0.08795793 -0.07505115 -0.04884749 0.014401302 0.13430351 -0.14453574 0.05826687 0.109291136
00000000: c274 cf3d e6c7 cebd 5efc 03be c823 ecbd
00000010: c14c 70bc b719 82bd fb9b da3d b2cb a23d
00000020: 55c7 bfbd 4846 813d 5316 acbc aaa1 f5bc
00000030: 775c bf3c 9852 ff3d 09e6 e13d 2464 0b3e
00000040: 0c88 f83d 9667 10be bbae 9d3d 6af4 14bd
00000050: cf8f ab3d d756 073e b92f 17bd f9ed 0dbe
00000060: 1f34 8f3c cf0b 90bb e974 25bd 54c2 c1bd
00000070: ba89 d6bd 6eff 12be 8181 0abe a64d be3d
00000080: 053e 19be b9ba 75bd b73a ea3d f4a3 0abe
00000090: 8449 c03d 7b63 e63c 97eb c8bc 93be a63d
000000a0: 8441 fe3d f892 04be b9de f3bc 1215 b43d
000000b0: 4c8b 93bc 736d 15be 43c9 0d3d 59be 09be
000000c0: 07c8 14be de13 013c 0485 fa3c c158 fa3d
000000d0: 6d3a 03be fcdf ab3c f134 89bd 2bd7 b8bd
000000e0: b45b 31bd c300 d7bd 2386 e2bb cf04 cf3d
000000f0: c8c7 613c 6f52 813d 3ff8 b5bd a9e5 89bd
00000100: 1908 ec3d 571e 2abd 5540 25bd c427 853d
00000110: ce03 3c3d 1ae3 a73d 705c c83d 1771 003d
00000120: b247 9ebd 8acd 92ba 85c2 993d b7cd 47bd
00000130: bcae 17bd 9eb9 a6bd a770 f1bc e86c 88bc
00000140: c412 e5bd 16ee 1d3d b67e 0ebe 9e69 fe3d
00000150: 0ad7 a93b 2281 efbb 3a84 113e d7d9 9ebd
00000160: 2385 7e3d 3bc4 afbc 02ca 843c e7d3 95bc
00000170: 7510 b8bc f9ce 98bc 361a e43d 1f01 753c
00000180: cdae a63c a733 cbbb fb86 cbbd a560 e13c
00000190: a3ad 8ebc 6e0d 273c 1e51 86bd 23ae 92bd
000001a0: ac6d 0ebd d300 a0ba d8eb bb3d 7f91 9b3c
000001b0: acbf 96bc b25d 573d dab4 6fbd 8e40 9c3d
000001c0: 5e65 ae3c a860 133d 124e aebd 11c4 02be
000001d0: d0ec 103e 7c32 02be b879 7e3d 6f40 a23d
000001e0: f85c 343c 1420 b13d 9b9a ff3d a9d1 a23d
000001f0: 4538 c7bc 9076 e0bc ec9d 50bd 8a87 d9bd
00000200: 1f12 073e 72ae 2bbd 4fa2 cabd 82b1 9dbc
00000210: 3d1c 0e3c 9825 053e fdf3 a23d be6c 0a3e
00000220: 235a e1bd 32a9 bf3c 5b53 b0bd dc02 de3d
00000230: 8c16 5cbd 6c84 49bc 6b5b ecbd 6692 453d
00000240: 4c17 94bd 1b71 5d3d 00fb 83bd 9430 01be
00000250: 14a5 41bd 118b d2bd 0bb4 33bc 4539 a03d
00000260: e966 18be 4704 db3c fe50 c53d 2996 e53d
00000270: 6557 04be ae94 543d 0599 ee3b 6841 fabd
00000280: 1b07 b7bd 43f4 703d e5c2 dcbd 1b5f 48bd
00000290: c0d7 6fbb 3da1 173e 700b 293d 6825 ecbd
000002a0: 39c9 8b3d 93e9 8ebd 9ebf 28bd 2daf f1bd
000002b0: 6210 0ebd 9e65 0a3d f1b1 fb3d ced7 ecbc
000002c0: 08ad 09be 3427 08be 954f 973d 18e2 87bd
000002d0: 6d25 403d 3a61 cb3d 01f4 aabd 083e aa3d
000002e0: cfb5 e63d fd6f a3bd 359c 9bbd e754 8c3d
000002f0: e523 b43d b6aa 1a3e aa51 6bbd dbcb 30bd
00000300: ad71 4d3d f945 fb3d 4c94 8abd 7d62 e2bc
00000310: 78a7 9f3d 51d9 1abe a012 903d 3db3 f03b
00000320: d74f d43d 6c2b 173e 5b8d 07be 0d1d 32bd
00000330: ae4e a0bd afe2 713d c85d dabd e07f e1bc
00000340: 7615 933d 8caa afbd 4228 97bd 3573 e93d
00000350: 5130 ce3d cbab 123e b766 1abe 6ff1 38bb
00000360: b62c b1bd 45c3 9ebd 76b7 483d 110b 1c3d
00000370: c1f4 3b3d 257b 2abd 7eba af3b 018a ed3d
00000380: 8e80 71bd 699c 6f3d 746d b73d a83b dabc
00000390: 80d5 093d c041 cebc e559 fabd 7615 8b3d
000003a0: 4d0f 09be e9d2 22bc def4 16be 0119 d6bd
000003b0: ca64 60bd 89fb f73d eb35 11bd 12d0 14bd
000003c0: ffff a53c adab 953b 3cbe edbd ce19 febd
000003d0: d30b 51bd bc7b 2f3b ff21 993d 7d5c b13c
000003e0: 4a23 b43d 6bb4 99bd 4e14 48bd 70f3 6b3c
000003f0: dc86 093e 2d01 14be 3ea9 6e3d 08d4 df3d

query_encoder.transformer_layer.layers.0.self_attn.in_proj_bias f4 [192]
-0.0009988581 -0.000990177 -0.0009989445 0.0009962124 0.0009956174 -0.0009955808 0.00097652007 -0.0009979719
0.0009923179 -0.0009869868 0.0009979128 -0.0009987247 -0.0009988311 -0.0009981052 0.0009990785 0.0009972928
0.0009985686 0.0009981492 -0.0009958707 -0.0009970193 0.000999259 -0.0009873222 -0.0009973267 -0.0009974589
0.000977338 0.0009977708 0.0009977522 0.0009983197 -0.0009974717 0.000999349 -0.0009886444 -0.0009936591
-0.0009984844 -0.0009903306 -0.0009987026 0.000998606 0.00095768605 -0.0009982388 0.000987856 0.0009985837
0.0009883863 -0.00097264274 -0.0009991903 -0.0009990502 -0.0009986828 0.0009986322 -0.0009967405 -0.000993389
-0.0009893919 -0.0009868274 0.0009958765 0.0009991303 -0.0009968167 -0.0009964618 0.000996395 0.0009982946
-0.0009986291 0.0009956353 0.0009966723 0.0009976302 -0.0009972658 -0.0009979896 -0.0009936712 0.0009981901
6.8207456e-08 -2.8420901e-08 -4.5472664e-08 1.7052736e-08 6.8207456e-08 5.399833e-08 -2.273685e-08 -2.273685e-08
-1.1368555e-08 -1.1368555e-08 1.1367391e-07 -1.364056e-07 -1.4210652e-08 3.410489e-08 -2.273685e-08 -5.6843095e-09
1.7052736e-08 3.410489e-08 2.9549844e-07 5.6843095e-09 1.1368555e-08 9.09412e-08 7.9574455e-08 1.1367391e-07
-3.978881e-08 -6.8207456e-08 -2.273685e-08 -5.684019e-08 -2.273685e-08 2.8420901e-08 8.526441e-09 -5.6843095e-09
-3.410489e-08 4.5472664e-08 6.8207456e-08 -1.7052736e-08 -4.5472664e-08 1.7052736e-08 -3.410489e-08 -9.09412e-08
7.9574455e-08 3.410489e-08 -2.273685e-08 -1.2503989e-07 3.410489e-08 0.0 3.410489e-08 -2.273685e-08
1.5631695e-08 4.5472664e-08 -1.1368555e-08 -2.273685e-08 4.5472664e-08 -2.273685e-08 2.5578885e-08 -6.8207456e-08
1.1368555e-08 2.2732199e-07 -2.273685e-08 -3.410489e-08 3.410489e-08 -2.273685e-08 -5.684019e-08 -3.410489e-08
0.0009999998 0.0009999988 0.0009999996 -0.0009999998 -0.0009999995 0.0009999996 -0.0009999998 -0.0009999996
0.0009999997 0.0009999996 0.0009999984 0.0009999996 0.0009999996 -0.0009999992 -0.0009999974 -0.0009999998
-0.0009999998 0.0009999999 -0.000999861 0.0009999996 -0.0009999997 0.0009999996 0.0009999997 0.0009999992
-0.0009999993 0.0009999997 0.0009999996 -0.0009999996 -0.0009999995 0.0009999996 0.0009999953 0.0009999996
0.0009999992 0.0009999993 -0.0009999998 0.0009999997 0.0009999995 0.0009999996 -0.0009999996 0.0009999998
-0.0009999998 -0.0009999953 0.0009999987 -0.0009999649 0.0009999969 0.0009999993 -0.0009999988 0.0009999938
0.0009999998 0.0009999991 -0.0009999998 -0.0009999953 0.0009999998 -0.0009999991 0.0009999995 0.0009999889
-0.0009999997 -0.0009999998 -0.0009999996 0.000999999 -0.0009999996 0.0009999998 0.000999997 -0.0009999996
00000000: 1eec 82ba d4c8 81ba 04ef 82ba 5793 823a
00000010: 607f 823a 267e 82ba 27fd 7f3a 61ce 82ba
00000020: aa10 823a c85d 81ba 66cc 823a a4e7 82ba
00000030: 36eb 82ba dad2 82ba 83f3 823a 98b7 823a
00000040: 67e2 823a 54d4 823a e087 82ba 6bae 82ba
00000050: 91f9 823a 0969 81ba bbb8 82ba 2bbd 82ba
00000060: 051a 803a a2c7 823a 02c7 823a 0dda 823a
00000070: 99bd 82ba 97fc 823a 6795 81ba ab3d 82ba
00000080: 94df 82ba fbcd 81ba e6e6 82ba a8e3 823a
00000090: 390d 7b3a 56d7 82ba f27a 813a e9e2 823a
000000a0: be8c 813a f3f8 7eba 43f7 82ba 90f2 82ba
000000b0: 3ce6 82ba 89e4 823a 10a5 82ba 9b34 82ba
000000c0: 7cae 81ba 6f58 81ba 1288 823a 40f5 823a
000000d0: 9ea7 82ba b69b 82ba 7899 823a 35d9 823a
000000e0: 6fe4 82ba fa7f 823a c6a2 823a eac2 823a
000000f0: b0b6 82ba f9ce 82ba 133e 82ba b4d5 823a
00000100: 7279 9233 3922 f4b2 b94d 43b3 5d7b 9232
00000110: 7279 9233 cbeb 6733 dd4e c3b2 dd4e c3b2
00000120: 6f4f 43b2 6f4f 43b2 e51c f433 e376 12b4
00000130: 1c23 74b2 b97a 1233 dd4e c3b2 b74f c3b1
00000140: 5d7b 9232 b97a 1233 ffa4 9e34 b74f c331
00000150: 6f4f 4332 744b c333 85e2 aa33 e51c f433
00000160: 42e4 2ab3 7279 92b3 dd4e c3b2 7320 74b3
00000170: dd4e c3b2 3922 f432 af7b 1232 b74f c3b1
00000180: b97a 12b3 b94d 4333 7279 9233 5d7b 92b2
00000190: b94d 43b3 5d7b 9232 b97a 12b3 744b c3b3
000001a0: 85e2 aa33 b97a 1233 dd4e c3b2 b442 06b4
000001b0: b97a 1233 0000 0000 b97a 1233 dd4e c3b2
000001c0: 7646 8632 b94d 4333 6f4f 43b2 dd4e c3b2
000001d0: b94d 4333 dd4e c3b2 90b8 db32 7279 92b3
000001e0: 6f4f 4332 cb15 7434 dd4e c3b2 b97a 12b3
000001f0: b97a 1233 dd4e c3b2 7320 74b3 b97a 12b3
00000200: 6d12 833a 6412 833a 6b12 833a 6d12 83ba
00000210: 6a12 83ba 6b12 833a 6d12 83ba 6b12 83ba
00000220: 6c12 833a 6b12 833a 6112 833a 6b12 833a
00000230: 6b12 833a 6812 83ba 5812 83ba 6d12 83ba
00000240: 6d12 83ba 6e12 833a c50d 83ba 6b12 833a
00000250: 6c12 83ba 6b12 833a 6c12 833a 6812 833a
00000260: 6912 83ba 6c12 833a 6b12 833a 6b12 83ba
00000270: 6a12 83ba 6b12 833a 4612 833a 6b12 833a
00000280: 6812 833a 6912 833a 6d12 83ba 6c12 833a
00000290: 6a12 833a 6b12 833a 6b12 83ba 6d12 833a
000002a0: 6d12 83ba 4612 83ba 6312 833a 4111 83ba
000002b0: 5412 833a 6912 833a 6412 83ba 3912 833a
000002c0: 6d12 833a 6712 833a 6d12 83ba 4612 83ba
000002d0: 6d12 833a 6712 83ba 6a12 833a 0f12 833a
000002e0: 6c12 83ba 6d12 83ba 6b12 83ba 6612 833a
000002f0: 6b12 83ba 6d12 833a 5512 833a 6b12 83ba

query_encoder.transformer_layer.layers.0.self_attn.out_proj.weight f4 [64, 64]
0.11839994 0.07762986 0.20524445 0.19821459 0.0022623935 -0.08339173 0.14762752 0.11028324
0.19969928 0.1431502 -0.2134389 -0.0108171385 -0.019972615 -0.027175587 0.015068648 -0.13497496
0.18267988 0.17339301 -0.22801986 0.15728997 -0.013031387 -0.05557743 0.061320424 0.1530814
0.10016525 0.017137455 0.16206917 0.04192385 0.17586836 -0.0056117135 0.12833914 -0.19498737
0.08694345 -0.0607704 0.13323341 0.12679179 0.14421465 -0.010487418 -0.061140526 -0.1930927
0.06196122 0.010502506 -0.02373717 -0.22488847 -0.08726449 -0.07262151 0.054585833 0.02644282
-0.10519765 -0.08890411 -0.032420594 -0.20387542 -0.018958952 0.21133918 -0.05538895 0.26691037
-0.0076050432 0.0016335374 -0.036277626 0.07231987 -0.024928695 -0.108669214 0.1660355 -0.031199407
-0.19363287 -0.025300203 -0.17209023 -0.3056285 0.0062444615 0.029921535 -0.043302134 0.09861911
0.121678986 0.20153202 -0.00064833474 0.029376194 -0.22579052 -0.0018529192 -0.022351697 0.0892527
0.011627593 0.18668632 -0.11730729 0.14531142 -0.057532582 0.23030956 0.23280561 0.04201462
0.17579646 -0.20839806 -0.030437866 -0.05626489 -0.010271037 0.060228154 0.1287761 0.09767154
0.16513474 0.013902184 -0.07723257 -0.15645854 0.14436997 0.12992257 0.14223081 0.0116323205
-0.2016503 -0.012845098 -0.06129345 0.008941455 0.14529425 -0.09062826 -0.23001127 -0.05432451
-0.18886417 0.039115507 0.17480557 0.107351154 -0.20460817 0.1787896 -0.16503227 0.039182756
-0.05293102 -0.15579729 -0.040649567 0.19424932 0.08962846 0.13002577 0.044644453 -0.069950975
0.047509465 -0.10698209 -0.20246759 0.054137196 0.068464085 0.09249924 0.15469688 0.015091845
0.04699683 0.025879795 0.0489166 0.12485182 -0.25229648 -0.1260153 -0.008560338 0.024860088
-0.037256766 0.33474737 -0.058010846 -0.16088 -0.06870016 -0.010226739 0.17117785 -0.14423163
-0.015214529 -0.16129676 -0.0065818545 0.019713178 0.14318366 0.06750194 0.08952338 -0.09867411
0.14342731 -0.21651375 0.12627718 -0.04998382 -0.011128686 0.02536689 -0.08232306 0.029104074
0.089641355 -0.06789774 0.0059548346 -0.33689383 -0.1324856 -0.10590323 0.034817267 -0.089153565
-0.10939287 0.042241834 0.08143146 0.012625849 -0.114542 0.11327656 -0.04645427 0.25574407
-0.039501604 -0.2242013 -0.04126472 -0.01575317 0.08535044 -0.05442721 0.08752874 -0.0772932
0.088187866 0.026886234 -0.04621895 -0.17386931 -0.015914572 -0.069501005 -0.24001737 -0.14424618
0.20351629 0.08709908 -0.059142455 0.055732775 -0.00162185 0.18715495 0.024357954 -0.06790335
-0.0139627885 0.1954642 -0.0409421 -0.02604918 -0.11599088 0.2529492 -0.2556753 0.027839964
-0.030717082 -0.18285508 -0.1815947 -0.11599191 -0.12915243 0.09931211 -0.036596283 0.13291648
0.025114665 0.041535508 -0.08092287 -0.10342075 0.28827885 0.038794104 -0.0058294544 0.16659158
0.030247657 0.034701355 -0.115846805 0.21940859 0.067635894 -0.119024314 -0.14055023 0.09822006
0.09832508 -0.0283872 0.02512991 -0.03170561 0.0909024 0.08416368 -0.0132882865 -0.07057459
0.019953953 0.21011639 0.079756945 -0.027309533 0.1634501 -0.13707665 -0.25629103 -0.08175242
00000000: ab7b f23d 67fc 9e3d 9a2b 523e c4f8 4a3e
00000010: aa44 143b 49c9 aabd ab2b 173e 2edc e13d
00000020: f87d 4c3e f795 123e ba8f 5abe 5e3a 31bc
00000030: 9c9d a3bc 569f debc 7ee2 763c e036 0abe
00000040: 6f10 3b3e f08d 313e 0a7e 69be 9f10 213e
00000050: 9981 55bc 29a5 63bd 202b 7b3d 5fc1 1c3e
00000060: 7023 cd3d d963 8c3c 76f5 253e 58b8 2b3d
00000070: d616 343e 77e2 b7bb 566b 033e c5aa 47be
00000080: 680f b23d 62ea 78bd 576e 083e b5d5 013e
00000090: 01ad 133e 6bd3 2bbc 7d6e 7abd 18ba 45be
000000a0: 0ccb 7d3d b412 2c3c 7474 c2bc 2a49 66be
000000b0: bab7 b2bd 96ba 94bd 6595 5f3d 9d9e d83c
000000c0: de71 d7bd 5c13 b6bd 75cb 04bd b8c4 50be
000000d0: ce4f 9bbc 4c69 583e 86df 62bd 7aa8 883e
000000e0: ba33 f9bb 6b1c d63a d997 14bd 711c 943d
000000f0: 4337 ccbc f78d debd 3605 2a3e e695 ffbc
00000100: b247 46be 5f42 cfbc 6c38 30be 577b 9cbe
00000110: 579e cc3b 021e f53c 945d 31bd d1f8 c93d
00000120: d532 f93d 695e 4e3e 02f5 29ba 58a6 f03c
00000130: a135 67be a7dd f2ba e81a b7bc 1fca b63d
00000140: a981 3e3c b32a 3f3e ce3e f0bd 84cc 143e
00000150: 49a7 6bbd 45d6 6b3e 9864 6e3e 8617 2c3d
00000160: fd03 343e 4d66 55be d558 f9bc 0376 66bd
00000170: da47 28bc ccb1 763d e2dd 033e 0408 c83d
00000180: 1519 293e fcc5 633c 1c2c 9ebd ab36 20be
00000190: b9d5 133e 6c0a 053e f4a4 113e 7d95 3e3c
000001a0: 6b7d 4ebe 3f74 52bc d70e 7bbd 2e7f 123c
000001b0: 04c8 143e 4f9b b9bd 1388 6bbe 6183 5ebd
000001c0: 9c65 41be 9537 203d 3b00 333e ecda db3d
000001d0: ce84 51be 9f14 373e 38fe 28be 197e 203d
000001e0: 32ce 58bd 5389 1fbe 2980 26bd 4be9 463e
000001f0: 208f b73d 7a25 053e 1add 363d 7542 8fbd
00000200: 4999 423d 6d19 dbbd aa53 4fbe f7be 5d3d
00000210: e636 8c3d 3e70 bd3d dc68 1e3e c943 773c
00000220: bf7f 403d dd01 d43c c65c 483d 50b2 ff3d
00000230: 012d 81be 280a 01be a940 0cbc 62a7 cb3c
00000240: 8d9a 18bd 0264 ab3e c89c 6dbd babd 24be
00000250: abb2 8cbd 0d8e 27bc 3f49 2f3e 75b1 13be
00000260: 5c46 79bc fa2a 25be 99ac d7bb 887d a13c
00000270: bd9e 123e 753e 8a3d 0958 b73d a715 cabd
00000280: 9cde 123e c8b5 5dbe ce4e 013e d6bb 4cbd
00000290: 1855 36bc 39ce cf3c fe98 a8bd ab6b ee3c
000002a0: e395 b73d f80d 8bbd c620 c33b 597d acbe
000002b0: 4eaa 07be cbe3 d8bd 8d9c 0e3d 2596 b6bd
000002c0: 5e09 e0bd c605 2d3d 8ac5 a63d a6dc 4e3c
000002d0: ff94 eabd 8bfd e73d d546 3ebd e3f0 823e
000002e0: 6fcc 21bd 0795 65be 3205 29bd cb0c 81bc
000002f0: 36cc ae3d 11ef 5ebd 4542 b33d e64b 9ebd
00000300: d79b b43d 8540 dc3c 1550 3dbd cc0a 32be
00000310: 475f 82bc 8b56 8ebd 1dc7 75be 45b5 13be
00000320: 9366 503e 0161 b23d 5c3f 72bd 0d48 643d
00000330: 4194 d4ba 8ca5 3f3e 558a c73c e910 8bbd
00000340: 2ec4 64bc c427 483e e7b2 27bd 1765 d5bc
00000350: a08c edbd 8f82 813e dfe7 82be a310 e43c
00000360: 64a2 fbbc 5d3e 3bbe f6f3 39be 2b8d edbd
00000370: 8940 04be 2664 cb3d fce5 15bd 421b 083e
00000380: 45bd cd3c 2321 2a3d e4ba a5bd 42ce d3bd
00000390: 4999 933e 91e6 1e3d 0205 bfbb fc96 2a3e
000003a0: efc9 f73c 0223 0e3d 1741 edbd a5ac 603e
000003b0: b084 8a3d 05c3 f3bd 66ec 0fbe 9927 c93d
000003c0: a95e c93d 468c e8bc 3edd cd3c bedd 01bd
000003d0: 0a2b ba3d 025e ac3d 1db7 59bc 6989 90bd
000003e0: 7976 a33c c028 573e 9c57 a33d 3eb8 dfbc
000003f0: 775f 273e d25d 0cbe 9438 83be d06d a7bd

query_encoder.transformer_layer.layers.0.self_attn.out_proj.bias f4 [64]
0.0009999993 -0.0009999995 -0.0009999991 0.0009999996 0.0009999998 -0.0009999998 0.0009999991 -0.0009999991
-0.0009999998 0.0009999998 0.0009999996 -0.0009999988 -0.0009999997 0.0009999987 0.0009999996 0.0009999997
0.0009999999 -0.0009999992 -0.0009999748 -0.0009999991 0.0009999996 0.0009999997 -0.0009999998 -0.0009999996
0.0009999985 0.0009999998 0.0009999996 -0.0009999996 -0.0009999941 0.0009999927 0.0009999996 -0.0009999996
-0.0009999991 0.0009999996 -0.0009999996 -0.0009999875 0.0009999996 -0.0009999957 0.0009999991 0.0009999996
0.0009999996 0.0009999335 -0.0009999998 0.0009999992 0.0009999576 0.000999989 -0.0009999998 0.0009999996
0.0009999997 0.0009999983 0.0009999991 0.0009999996 -0.0009999997 0.0009999995 -0.0009999991 -0.0009999996
0.0009999998 0.0009999996 -0.0009999996 -0.0009999998 -0.0009999998 -0.0009999997 -0.0009999961 -0.0009999995
00000000: 6912 833a 6a12 83ba 6712 83ba 6b12 833a
00000010: 6d12 833a 6d12 83ba 6712 833a 6712 83ba
00000020: 6d12 83ba 6d12 833a 6b12 833a 6412 83ba
00000030: 6c12 83ba 6312 833a 6b12 833a 6c12 833a
00000040: 6e12 833a 6812 83ba 9611 83ba 6712 83ba
00000050: 6b12 833a 6c12 833a 6d12 83ba 6b12 83ba
00000060: 6212 833a 6d12 833a 6b12 833a 6b12 83ba
00000070: 3c12 83ba 3012 833a 6b12 833a 6b12 83ba
00000080: 6712 83ba 6b12 833a 6b12 83ba 0312 83ba
00000090: 6b12 833a 4a12 83ba 6712 833a 6b12 833a
000000a0: 6b12 833a 3310 833a 6d12 83ba 6812 833a
000000b0: 0211 833a 1012 833a 6d12 83ba 6b12 833a
000000c0: 6c12 833a 6012 833a 6712 833a 6b12 833a
000000d0: 6c12 83ba 6a12 833a 6712 83ba 6b12 83ba
000000e0: 6d12 833a 6b12 833a 6b12 83ba 6d12 83ba
000000f0: 6d12 83ba 6c12 83ba 4d12 83ba 6a12 83ba
